team-sandeep-conceptrecommender/model.pth (torch, 30324 bytes, 6 tensors)

sage1.lin_l.weight f4 [64, 52]
-0.11462608 0.0026515962 0.057850398 -0.0058665643 0.029565996 0.023891868 0.025299486 0.037460305
0.12321835 -0.10999641 -0.105618805 -0.002574345 -0.08215733 -0.11774049 0.013563447 0.065191
0.029009303 -0.07419935 -0.047022246 -0.09726562 -0.096980594 0.12801208 0.103487335 0.040352874
-0.017226629 0.037398834 -0.105925 -0.074984886 -0.071815275 0.028870523 -0.09348099 -0.09768711
-0.12761863 -0.023285339 0.009905373 0.043362238 -0.113712505 0.01004331 0.059186544 0.13716002
0.07626338 0.028425861 0.071895584 -0.062329542 -0.07330115 0.07231998 -0.12583974 -0.10376093
0.066896915 0.13425316 0.07383746 0.03637706 0.1643374 0.021424323 -0.2086257 -0.20068492
0.20285381 -0.08334761 0.04718197 -0.32221267 0.3555028 -0.21769297 -0.15775666 0.33215794
0.004158568 -0.12972145 0.0248091 -0.076632746 -0.12573592 0.08719661 -0.09368297 -0.069711976
0.28054407 0.040799912 -0.13058087 0.1962048 0.11112787 0.30179307 -0.13560998 0.09352536
0.122665934 -0.026399283 0.08079141 -0.24858277 -0.13672212 0.13392468 -0.08049538 0.08244062
0.014683678 0.011901302 -0.0752865 0.0250839 -0.09763077 0.12680022 0.08282377 0.0038689398
-0.08020603 0.039319083 0.17924285 -0.041119017 0.117354795 -0.12459384 -0.10502263 -0.034944456
0.13228878 -0.03625329 -0.13821048 -0.068964764 0.26273257 -0.04341489 0.0272382 0.12349123
-0.058218062 -0.29199106 -0.063873276 0.28234327 -0.033386625 -0.113144055 -0.010825475 -0.10281725
-0.02134988 0.13162778 0.12178683 -0.12637907 0.24946147 0.13249382 -0.07963952 0.2757273
0.15281697 0.25226116 -0.046308786 0.1314612 0.24010067 -0.13073978 0.024492275 -0.18270682
-0.06535763 0.12976669 -0.01893794 -0.11181302 0.028227039 -0.06658515 0.1327649 0.030564623
0.07829182 -0.029959045 -0.15714726 0.086593196 -0.11100321 -0.000768741 0.27035347 -0.05807731
0.09058555 -0.11918541 0.094803646 0.065435365 0.09311704 0.004246874 -0.1845363 -0.043860395
0.26201966 -0.11612392 -0.03245356 0.18916363 0.13498221 -0.09720862 -0.17574234 0.23606764
0.11349175 -0.16631743 0.11352094 0.10715187 -0.007900995 -0.09116364 0.007504226 -0.110207416
0.09401613 -0.004121829 -0.06451528 0.108008504 0.24987176 0.13103294 -0.090649545 -0.13565657
0.071218714 0.13830212 -0.10816863 -0.04744478 -0.0071671684 -0.046736553 0.084946394 0.013921648
0.08912837 -0.0033300593 -0.1323475 0.10869365 0.057854798 0.1247288 0.17784852 0.0361797
-0.047643263 -0.034464583 0.31152713 -0.11784518 -0.13531089 -0.13684778 -0.0060889274 -0.009939443
0.2050587 0.28739882 -0.24967487 -0.09246178 0.22065352 0.1316604 -0.07713456 0.23218285
-0.23545806 -0.22226255 -0.06015715 -0.13367234 -0.13257779 -0.050676834 0.0066816094 0.09624295
-0.02884789 0.042211376 -0.07773529 -0.011038002 0.24352027 0.122450665 0.11604245 0.30437294
0.091656655 -0.15872395 0.04373816 0.13057514 0.050756488 0.03734051 -0.106486484 -0.13396451
0.07032342 -0.0052887932 0.029523049 0.026510688 0.0064519397 0.046829738 -0.076345794 0.07846695
0.07280204 -0.009533797 -0.019991796 -0.14182992 -0.10487656 -0.11731876 0.14710875 -0.060485613
00000000: 14c1 eabd 67c6 2d3b 8af4 6c3d 4f3c c0bb
00000010: 6334 f23c e1b8 c33c de40 cf3c fa6f 193d
00000020: e759 fc3d cc45 e1bd ac4e d8bd 58b6 28bb
00000030: 1a42 a8bd ed21 f1bd 3839 5e3c dc82 853d
00000040: eba4 ed3c d4f5 97bd 669a 40bd 3333 c7bd
00000050: c39d c6bd 9915 033e 2bf1 d33d 0e49 253d
00000060: dc1e 8dbc 852f 193d 35ef d8bd ad91 99bd
00000070: e313 93bd e081 ec3c f672 bfbd 2e10 c8bd
00000080: 75ae 02be e5c0 bebc 254a 223c 9a9c 313d
00000090: 1ae2 e8bd b28c 243c 976d 723d ad73 0c3e
000000a0: fa2f 9c3d 5add e83c fe3d 933d 434d 7fbd
000000b0: ea1e 96bd 7f1c 943d 22dc 00be 9c80 d4bd
000000c0: 4001 893d a979 093e 1838 973d 1d00 153d
000000d0: 1048 283e 1082 af3c faa1 55be 5980 4dbe
000000e0: e9b8 4f3e 27b2 aabd e241 413d 0ff9 a4be
000000f0: 7704 b63e e8ea 5ebe f68a 21be 9b10 aa3e
00000100: 9944 883b b3d5 04be 743c cb3c a1f1 9cbd
00000110: ebc0 00be 2394 b23d dbdc bfbd 27c5 8ebd
00000120: 79a3 8f3e cf1d 273d feb6 05be e9e9 483e
00000130: 0297 e33d 9f84 9a3e 58dd 0abe 398a bf3d
00000140: 4738 fb3d 4f43 d8bc f775 a53d 7b8c 7ebe
00000150: e200 0cbe 8d23 093e c3da a4bd a1d6 a83d
00000160: cf93 703c aefd 423c cf2f 9abd c07c cd3c
00000170: a4f2 c7bd ebd7 013e 829f a93d 0a8e 7d3b
00000180: 0f43 a4bd 0c0d 213d 708b 373e 6a6c 28bd
00000190: b657 f03d 0e2b ffbd 1b16 d7bd eb21 0fbd
000001a0: b676 073e 547e 14bd 0c87 0dbe 663d 8dbd
000001b0: e284 863e d0d3 31bd a522 df3c f8e8 fc3d
000001c0: 1076 6ebd da7f 95be fecf 82bd 4c8f 903e
000001d0: 6ac0 08bd 12b8 e7bd 555d 31bc da91 d2bd
000001e0: f2e5 aebc 6fc9 063e 606b f93d 8469 01be
000001f0: d472 7f3e 76ac 073e 0b1a a3bd 212c 8d3e
00000200: 0d7c 1c3e 6028 813e 48ae 3dbd c49d 063e
00000210: f3dc 753e a6e0 05be 06a4 c83c 7f17 3bbe
00000220: 39da 85bd 8fe1 043e bd23 9bbc 3afe e4bd
00000230: 643c e73c cc5d 88bd 86f3 073e a962 fa3c
00000240: 7657 a03d ac6c f5bc 36eb 20be c657 b13d
00000250: a755 e3bd 5685 49ba c56b 8a3e 79e2 6dbd
00000260: eb84 b93d 7b17 f4bd 6a28 c23d fa02 863d
00000270: 26b4 be3d 5c29 8b3b 15f7 3cbe f5a6 33bd
00000280: 7127 863e 61d2 edbd 06ee 04bd 1cb4 413e
00000290: c738 0a3e 5015 c7bd cdf5 33be b7bb 713e
000002a0: 5d6e e83d 1e4f 2abe ab7d e83d 7172 db3d
000002b0: 2d73 01bc 01b4 babd 03e6 f53b 6db4 e1bd
000002c0: 878b c03d 6810 87bb 9620 84bd 9033 dd3d
000002d0: 62de 7f3e 802d 063e 78a6 b9bd 8ee9 0abe
000002e0: 1edb 913d 129f 0d3e 8487 ddbd 7555 42bd
000002f0: 91da eabb d46e 3fbd 60f8 ad3d a017 643c
00000300: ef88 b63d 203d 5abb 1a86 07be c79a de3d
00000310: 27f9 6c3d d071 ff3d ec1d 363e 2a31 143d
00000320: 9525 43bd bc2a 0dbd 7c80 9f3e d058 f1bd
00000330: f08e 0abe d321 0cbe a085 c7bb 0cd9 22bc
00000340: e8fa 513e f025 933e c5aa 7fbe 9a5c bdbd
00000350: fff2 613e fcd1 063e b9f8 9dbd 57c1 6d3e
00000360: eb1b 71be cb98 63be 5867 76bd 67e1 08be
00000370: 79c2 07be 8392 4fbd 67f1 da3b 061b c53d
00000380: 6952 ecbc d6e5 2c3d ae33 9fbd bcd8 34bc
00000390: 615d 793e 6ac7 fa3d aaa7 ed3d c5d6 9b3e
000003a0: 7cb6 bb3d 8888 22be c926 333d 7db5 053e
000003b0: 09e6 4f3d 5df2 183d 9615 dabd fe2d 09be
000003c0: ba05 903d 9d4d adbb 52da f13c f12c d93c
000003d0: cb6a d33b 8ad0 3f3d 2f5b 9cbd 48b3 a03d
000003e0: 3c19 953d a533 1cbc d6c5 a3bc dd3b 11be
000003f0: 86c9 d6bd d144 f0bd ada3 163e c3bf 77bd

sage1.lin_l.bias f4 [64]
-0.18022957 0.20236252 0.13532506 0.17509037 0.12252072 -0.20308323 0.35221574 0.19515875
0.1271927 0.23560712 0.14199267 0.22965029 0.1386445 0.007175779 0.027867578 0.15687731
0.14819354 -0.014133583 0.1670241 0.082003206 0.1907997 0.20139594 0.18621816 -0.0940634
-0.024256522 0.21033092 0.15452698 0.11243683 0.2585738 0.23541337 0.2326763 -0.13925545
0.09858271 0.14939241 0.1818938 0.11544983 0.044531997 0.11213132 0.25044292 0.19990806
0.19015817 0.07375367 0.36342734 0.037702437 0.17909989 0.192431 0.04639011 0.062482297
0.0983025 0.20692347 0.2180661 0.15126282 -0.13286619 0.29103526 0.30655536 0.09025035
-0.014785113 -0.031143967 0.29261285 0.08968034 -0.21659973 0.21499124 0.005702333 0.077808745
00000000: 1a8e 38be 1f38 4f3e a792 0a3e e44a 333e
00000010: 25ec fa3d 0df5 4fbe 9f55 b43e b2d7 473e
00000020: ce3e 023e fe42 713e 8766 113e 7229 6b3e
00000030: d3f8 0d3e cc22 eb3b 8c4a e43c 72a4 203e
00000040: 0cc0 173e 8b90 67bc 5e08 2b3e 4cf1 a73d
00000050: ff60 433e bd3a 4e3e f9af 3e3e 50a4 c0bd
00000060: 9db5 c6bc fd60 573e 523c 1e3e 4845 e63d
00000070: c963 843e 3410 713e b242 6e3e fb98 0ebe
00000080: bbe5 c93d 53fa 183e 5e42 3a3e f670 ec3d
00000090: 2f67 363d 1ba5 e53d 0e3a 803e b3b4 4c3e
000000a0: d3b8 423e 2a0c 973d 2613 ba3e df6d 1a3d
000000b0: f665 373e a20c 453e 8e03 3e3d 70ed 7f3d
000000c0: d252 c93d bfe3 533e b84c 5f3e a4e4 1a3e
000000d0: 130e 08be 9302 953e d3f4 9c3e 2dd5 b83d
000000e0: 423d 72bc a221 ffbc 5ad1 953e 53aa b73d
000000f0: 52cc 5dbe aa26 5c3e a3da ba3b 315a 9f3d

sage1.lin_r.weight f4 [64, 52]
0.04025695 0.048725754 -0.013920375 0.008813542 0.0588523 -0.014344389 -0.12316285 -0.041908175
-0.09738849 -0.023376327 0.006397667 -0.08196532 0.072615266 0.13796242 0.124351256 0.09686924
0.08327161 -0.07324751 0.0370302 0.0544092 0.12584017 0.10684512 0.06892104 0.09494613
-0.09572089 -0.04896063 -0.03803514 -0.06275571 0.022338009 -0.02635789 0.03600575 -0.029293427
0.095155336 -0.12728539 -0.07710665 -0.1085474 0.040485766 -0.06478004 -0.018582432 0.014217742
0.10259927 0.042901162 -0.05059525 -0.05718913 -0.09444068 0.025324557 0.04443234 0.023888964
0.033402875 0.021644287 -0.12560566 -0.047883663 0.17614715 0.3012511 0.06274452 -0.1734757
0.22544092 0.10129041 0.2753965 -0.06469385 0.005979771 -0.05000508 -0.1642624 -0.08451622
0.07681199 -0.13372298 -0.09213479 -0.13145578 0.12637062 -0.06082568 -0.12393208 0.08903932
0.07404025 -0.042480703 -0.019055856 0.25706849 0.15078859 0.2988451 0.11851946 0.33506066
0.07947886 -0.020409362 0.32887402 0.26397616 -0.06289973 -0.14645815 0.025361791 0.43024716
0.054392982 0.33639178 0.051642302 -0.06577459 0.3323944 0.087692656 0.3118301 -0.03958745
-0.18766643 0.45909086 -0.16612448 0.12969439 0.4961375 0.16932428 0.072279885 0.28509364
0.103147395 0.09277187 0.0058921715 -0.19529895 0.2873215 0.1506516 0.2329974 -0.11189681
0.40257308 -0.10620399 -0.15563439 0.45385054 0.16718629 -0.18613163 -0.048109066 -0.21770453
0.23280461 -0.043428827 -0.3206631 0.138195 0.21988787 -0.02184225 0.029312966 0.13987476
0.1760794 0.24951012 0.036284752 0.18780565 0.18857893 0.016217705 0.17418258 0.3999012
-0.09180176 -0.20539626 0.061825924 0.39958662 -0.07106148 0.17002152 0.25393286 0.10873189
0.04986444 0.32409844 0.30149606 0.07084438 -0.23836368 0.41298923 -0.3431073 0.044074755
0.30777785 0.3822665 0.236321 0.25635856 0.36021423 0.23292804 -0.10584776 -0.1273957
0.23179844 0.23034681 0.13426366 -0.09239535 0.26618478 -0.17342782 -0.25076813 0.47202525
0.27733785 0.06512013 0.08424514 -0.0037339814 0.30293643 0.02304565 -0.3176205 0.17401378
0.2683114 -0.03790289 0.06414164 0.18852645 0.063886315 0.2648844 -0.11088407 0.1538562
0.28907177 0.013250971 0.18166816 0.3005215 -0.15843019 -0.11935527 -0.0920009 0.3196175
0.12344959 0.15546826 0.17006885 0.10413718 0.13639227 0.15225412 0.36495852 0.21884081
-0.21551773 0.2841779 -0.19227974 0.05755614 0.14942022 0.5014021 0.19847226 0.2506196
-0.12415189 0.077225424 -0.112341546 -0.12516664 0.1515722 0.28681883 0.046378598 0.17168929
0.42273048 0.2992316 -0.09029903 0.5792183 -0.09506623 -0.12864299 -0.13211662 -0.13499174
-0.008542875 -0.11913992 -0.34022483 0.16490705 0.25374588 -0.038986288 -0.13807523 -0.10384306
0.12023572 0.14272884 0.026369113 0.12667485 0.20959532 0.0789518 0.2316923 0.20821811
-0.021039536 -0.118608564 -0.022256972 0.0006178924 -0.039904572 0.039702587 0.2576387 0.099816464
0.22797292 0.08025406 0.3710306 0.01793538 0.019147694 0.61056066 -0.050969582 0.08017851
00000000: 79e4 243d a894 473d 4912 64bc ad66 103c
00000010: 1c0f 713d ba04 6bbc ce3c fcbd e8a7 2bbd
00000020: 9e73 c7bd b67f bfbc 85a3 d13b 6fdd a7bd
00000030: 50b7 943d 0546 0d3e dfab fe3d 6163 c63d
00000040: 4e8a aa3d ca02 96bd fbac 173d 2edc 5e3d
00000050: 3fdc 003e 9dd1 da3d 7926 8d3d 1e73 c23d
00000060: 5009 c4bd f18a 48bd bcca 1bbd 1186 80bd
00000070: 33fe b63c 80ec d7bc c47a 133d c5f8 efbc
00000080: cde0 c23d 1a57 02be 17ea 9dbd 194e debd
00000090: 67d4 253d 66ab 84bd 2f3a 98bc 88f1 683c
000000a0: 911f d23d 21b9 2f3d f73c 4fbd 263f 6abd
000000b0: 1e6a c1bd 7275 cf3c affe 353d cab2 c33c
000000c0: 74d1 083d 5c4f b13c c59e 00be a921 44bd
000000d0: eb5f 343e 963d 9a3e 3380 803d 9da3 31be
000000e0: fcd9 663e 5971 cf3d c500 8d3e 367e 84bd
000000f0: f4f1 c33b 20d2 4cbd 6734 28be d716 adbd
00000100: 9b4f 9d3d adee 08be 2ab1 bcbd 589c 06be
00000110: 4d67 013e 5924 79bd 1ad0 fdbd 3f5a b63d
00000120: 6aa2 973d 3f00 2ebd 071b 9cbc 7b9e 833e
00000130: 5368 1a3e 3a02 993e 55ba f23d 128d ab3e
00000140: d0c5 a23d 8931 a7bc 2d62 a83e e227 873e
00000150: 93d1 80bd 20f9 15be 88c3 cf3c 5b49 dc3e
00000160: 2dcb 5e3d 8b3b ac3e e186 533d d4b4 86bd
00000170: 992f aa3e 3598 b33d 32a8 9f3e 7326 22bd
00000180: a12b 40be f50d eb3e 891c 2abe 9bce 043e
00000190: bc05 fe3e 5863 2d3e 7a07 943d cbf7 913e
000001a0: f13e d33d 2eff bd3d 1e13 c13b 73fc 47be
000001b0: ce1b 933e 6a44 1a3e df96 6e3e 282a e5bd
000001c0: 0f1e ce3e 7a81 d9bd 9f5e 1fbe 195f e83e
000001d0: e232 2b3e 4a99 3ebe 030e 45bd f0ed 5ebe
000001e0: 5564 6e3e 6de2 31bd f42d a4be fd82 0d3e
000001f0: 492a 613e 85ee b2bc bf21 f03c 543b 0f3e
00000200: 294e 343e 957f 7f3e 529f 143d 2050 403e
00000210: d61a 413e feda 843c eb5c 323e dabf cc3e
00000220: 9002 bcbd 6653 52be 2e3d 7d3d 9e96 cc3e
00000230: ae88 91bd 1f1a 2e3e 7d03 823e d3ae de3d
00000240: a83e 4c3d 3bf0 a53e b15d 9a3e dc16 913d
00000250: 9c15 74be 5373 d33e c3ab afbe bb87 343d
00000260: 0f95 9d3e 6fb8 c33e 22fe 713e 6e41 833e
00000270: 006e b83e b084 6e3e b6c6 d8bd 0574 02be
00000280: 925c 6d3e 09e0 6b3e 6a7c 093e c639 bdbd
00000290: 5f49 883e 1097 31be ae64 80be 4bad f13e
000002a0: 3aff 8d3e b45d 853d b788 ac3d d0b5 74bb
000002b0: 7c1a 9b3e 3bca bc3c 279f a2be ab30 323e
000002c0: 1d60 893e 1040 1bbd b15c 833d 140d 413e
000002d0: d4d6 823d ee9e 873e 3017 e3bd 7b8c 1d3e
000002e0: 3701 943e 9a1a 593c 3807 3a3e f4dd 993e
000002f0: 863b 22be 8970 f4bd f86a bcbd e8a4 a33e
00000300: 23d3 fc3d 1233 1f3e 8726 2e3e e045 d53d
00000310: 6aaa 0b3e 81e8 1b3e d8db ba3e ce17 603e
00000320: aeb0 5cbe c47f 913e fbe4 44be fdbf 6b3d
00000330: 9d01 193e e35b 003f 503c 4b3e 3651 803e
00000340: 5943 febd 5d28 9e3d 5313 e6bd af2b 00be
00000350: be35 1b3e ebd9 923e 7cf7 3d3d 51cf 2f3e
00000360: 2170 d83e e234 993e b3ee b8bd a747 143f
00000370: 15b2 c2bd fdba 03be 9449 07be 463b 0abe
00000380: 6af7 0bbc a1ff f3bd f331 aebe 65dd 283e
00000390: fbea 813e 16b0 1fbd 9863 0dbe acab d4bd
000003a0: 253e f63d 8227 123e 0a04 d83c 0db7 013e
000003b0: 28a0 563e 7bb1 a13d bf40 6d3e 2137 553e
000003c0: 1b5b acbc 0ce9 f2bd 4154 b6bc 0ffa 213a
000003d0: fa72 23bd 2e9f 223d 38e9 833e 936c cc3d
000003e0: bc71 693e 3e5c a43d b9f7 bd3e 38ed 923c
000003f0: a0db 9c3c b44d 1c3f 7bc5 50bd a134 a43d

sage2.lin_l.weight f4 [2, 64]
0.058545273 -0.13469939 0.0438621 0.060241677 -0.0010652121 0.07054432 -0.3816481 -0.4492475
-0.122899525 -0.14649841 -0.122650534 0.111316755 -0.007541406 0.08577935 0.17303745 -0.1603298
0.26155972 0.13925113 -0.26699427 0.27764854 -0.05320282 -0.09267622 -0.40030998 0.078881115
0.25422117 -0.30122137 0.041975178 -0.026364556 -0.29997477 -0.33129734 -0.07288802 0.18568343
0.30959564 0.2516242 -0.17846361 -0.15458229 0.11927443 -0.057851974 -0.29169753 -0.23253512
0.11532317 0.14360121 -0.34809715 0.2928347 0.12023987 0.1897834 0.11764985 0.17426711
-0.15199764 -0.08584611 0.24610433 0.10194457 0.172887 -0.2199965 0.009331074 0.21666595
0.16733594 -0.012579799 -0.3373529 0.10200073 -0.0858806 0.01992462 0.021334125 0.3076885
-0.022867227 -0.09251726 0.0596886 0.02381994 0.10461777 -0.063929975 0.30260167 0.33465713
0.050613914 0.08460992 0.025192674 -0.18215847 0.20627818 0.022996906 -0.16744429 0.018148653
-0.28119558 -0.11808644 0.24359384 -0.18705451 -0.14302562 0.20174876 0.17523721 -0.026047993
-0.22585975 0.17149596 -0.123525724 -0.08410107 0.3868712 0.28762937 -0.13542813 -0.2421105
-0.14529859 -0.049490567 0.19133897 -0.03722865 -0.16840415 0.069434255 0.24713686 0.27366018
-0.13533255 0.043859266 0.3562633 -0.18316342 0.03058216 -0.0054394654 -0.33806163 -0.0071108243
0.109142765 -0.015986282 -0.16472133 -0.2059988 -0.027602179 0.10590103 0.13940278 -0.18017901
-0.00880415 -0.08884485 0.35389328 -0.18516758 0.021568155 0.054843735 -0.23075451 -0.29388857
00000000: 2bcd 6f3d a3ee 09be bfa8 333d fabf 763d
00000010: 969e 8bba 8a79 903d 6167 c3be c503 e6be
00000020: bfb2 fbbd ae03 16be 3430 fbbd 0afa e33d
00000030: e61d f7bb 15ad af3d bb30 313e 7f2d 24be
00000040: 28eb 853e d997 0e3e 79b3 88be f327 8e3e
00000050: 33eb 59bd 08cd bdbd 6ef5 ccbe 6c8c a13d
00000060: 4729 823e b039 9abe 2aee 2b3d 7bfa d7bc
00000070: 4b96 99be ce9f a9be 5046 95bd cc23 3e3e
00000080: 5283 9e3e e3d4 803e 2abf 36be d24a 1ebe
00000090: 2746 f43d 31f6 6cbd 6159 95be b01d 6ebe
000000a0: 8e2e ec3d 320c 133e ca39 b2be 6eee 953e
000000b0: 5240 f63d 9456 423e 68f2 f03d 1473 323e
000000c0: 45a5 1bbe 16d0 afbd c602 7c3e 51c8 d03d
000000d0: 4a09 313e c346 61be 5ce1 183c aedd 5d3e
000000e0: 1d5a 2b3e 801b 4ebc 85b9 acbe c2e5 d03d
000000f0: 2be2 afbd f538 a33c e7c4 ae3c 5989 9d3e
00000100: 0d54 bbbc b079 bdbd 097c 743d 0922 c33c
00000110: d741 d63d b8ed 82bd 9bee 9a3e 2e58 ab3e
00000120: 8950 4f3d f747 ad3d de60 ce3c c087 3abe
00000130: 963a 533e 0264 bc3c 8476 2bbe 7cac 943c
00000140: def8 8fbe 4ed7 f1bd aa70 793e 388b 3fbe
00000150: 4f75 12be 3a97 4e3e 6271 333e 9a62 d5bc
00000160: c747 67be a39c 2f3e 0efb fcbd 2f3d acbd
00000170: fb13 c63e 2844 933e acad 0abe d1eb 77be
00000180: 27c9 14be 9fb6 4abd 5dee 433e 127d 18bd
00000190: 2372 2cbe 8c33 8e3d 7211 7d3e 301d 8c3e
000001a0: 9e94 0abe c6a5 333d 2568 b63e 318f 3bbe
000001b0: 7087 fa3c 8b3d b2bb 6a16 adbe eb01 e9bb
000001c0: 3e86 df3d aaf5 82bc b5ac 28be 59f1 52be
000001d0: f71d e2bc a4e2 d83d 9abf 0e3e d980 38be
000001e0: 483f 10bc 4af4 b5bd 8031 b53e 929c 3dbe
000001f0: b3af b03c d3a3 603d e94a 6cbe 9078 96be

sage2.lin_l.bias f4 [2]
0.0952396 0.03568141
00000000: fb0c c33d ac26 123d

sage2.lin_r.weight f4 [2, 64]
-0.024472866 0.28709006 0.3008116 0.45994133 0.3079691 -0.0049344185 0.12378539 -0.4578354
0.3855946 0.29718858 0.36053202 0.24158007 0.2900534 -0.32407826 -0.2805739 0.53445953
-0.24695775 0.09995288 0.47762668 0.4048649 0.1988958 0.39836332 -0.30558088 -0.15577194
0.13024308 -0.42383543 0.28186953 -0.30140767 0.36215967 0.50441486 0.2627641 0.013269464
0.32696837 -0.36940148 0.35821736 0.4110837 0.07415543 0.4540788 0.45536748 0.3585288
-0.24124165 0.4129636 0.45885974 0.2313765 0.31575564 0.16083239 -0.38858595 -0.1749748
-0.40717545 0.2673882 0.31652877 -0.32005087 0.04052884 0.39231 0.34645206 -0.023931812
0.098836176 0.027899718 0.38943854 0.16632967 -0.0101496745 0.40834197 0.070782475 -0.09532716
-0.11385666 -0.3197005 -0.36881483 -0.46692172 -0.3100681 -0.11850031 0.08962364 0.35070878
-0.40268567 -0.37650704 -0.17759024 -0.20219268 -0.25865224 0.3471101 0.2831306 -0.40916467
0.36731216 -0.21671483 -0.43375078 -0.20846668 -0.23139805 -0.33787173 0.3370297 0.26702046
0.024205582 0.32968357 -0.27253595 0.37348717 -0.34598476 -0.4788136 -0.3527009 -0.024415594
-0.3255 0.3702606 -0.4220597 -0.41583526 -0.007948667 -0.41457358 -0.2418102 -0.260721
0.2635901 -0.30872703 -0.38725564 -0.1802816 -0.34897897 -0.25306934 0.21599944 0.1286766
0.38561016 -0.24303605 -0.24323861 0.19939817 0.08373158 -0.4296155 -0.36726713 0.015033281
-0.16088372 0.16208635 -0.37561536 -0.24512053 -0.10358356 -0.2635198 -0.17083508 0.041567195
00000000: 527b c8bc 78fd 923e fa03 9a3e 6e7d eb3e
00000010: 20ae 9d3e e7b0 a1bb 3283 fd3d 6769 eabe
00000020: a86c c53e 1a29 983e a797 b83e c460 773e
00000030: e181 943e 96ed a5be 62a7 8fbe 57d2 083f
00000040: 7ee2 7cbe 18b4 cc3d 7c8b f43e 744a cf3e
00000050: 57ab 4b3e 47f6 cb3e 1975 9cbe ae82 1fbe
00000060: 715e 053e f500 d9be 3451 903e 1b52 9abe
00000070: fe6c b93e 5521 013f 0489 863e 2a68 593c
00000080: 6668 a73e 3122 bdbe 4468 b73e 9079 d23e
00000090: cdde 973d 047d e83e ed25 e93e 1691 b73e
000000a0: 0d08 77be f76f d33e aaef ea3e f6ed 6c3e
000000b0: b9aa a13e 3fb1 243e bdf4 c6be 982c 33be
000000c0: 4d79 d0be 1be7 883e 0f10 a23e b5dd a3be
000000d0: 9201 263d dbdc c83e 2a62 b13e a60c c4bc
000000e0: 9f6a ca3d f38d e43c 7d64 c73e 5352 2a3e
000000f0: d24a 26bc 3312 d13e 67f6 903d e33a c3bd
00000100: ae2d e9bd c9af a3be 4cd5 bcbe 5d10 efbe
00000110: 3fc1 9ebe 4ab0 f2bd 998c b73d 1a90 b33e
00000120: d12c cebe 88c5 c0be 37da 35be 990b 4fbe
00000130: 116e 84be 6ab8 b13e 7ef6 903e 087e d1be
00000140: 5710 bc3e 7eea 5dbe 9514 debe 4a78 55be
00000150: 9cf3 6cbe 86fd acbe 288f ac3e e8b6 883e
00000160: c94a c63c 49cc a83e d589 8bbe b639 bf3e
00000170: ea24 b1be 0e27 f5be 3695 b4be 3603 c8bc
00000180: f0a7 a6be cc92 bd3e 3618 d8be 5ce8 d4be
00000190: 203b 02bc fd42 d4be 189d 77be 397d 85be
000001a0: 48f5 863e 7811 9ebe 5f46 c6be bd9b 38be
000001b0: 5fad b2be 4e92 81be f52e 5d3e ccc3 033e
000001c0: b26e c53e 71de 78be 8b13 79be 092f 4c3e
000001d0: 767b ab3d 90f6 dbbe 700a bcbe 274e 763c
000001e0: b4be 24be f7f9 253e a850 c0be e000 7bbe
000001f0: 9e23 d4bd 11ec 86be 64ef 2ebe 5d42 2a3d
